model/model.pth (torch, 17216 bytes, 4 tensors)

linear1.weight f4 [256, 11]
0	0xbbb24a04	-0.0054409523
1	0xbea3e27a	-0.32008725
2	0xbcf469d3	-0.029835617
3	0x3c7b7267	0.0153471
4	0xbe5e496e	-0.21707699
5	0xbe1b9bf0	-0.15196204
6	0x3cbc06f5	0.022952536
7	0xbdbf2b85	-0.093344726
8	0x3e7507a3	0.23928694
9	0xbd0e98ba	-0.03481362
10	0x3de6903e	0.11257981
11	0x3ebc15a5	0.36735263
12	0x3da55eb1	0.080747016
13	0x3deee9e0	0.11665702
14	0xbd1a94f8	-0.037739724
15	0x3df194e1	0.117959745
16	0xbe54361a	-0.20723763
17	0xbc89fd86	-0.016844522
18	0x3e932625	0.2874004
19	0x3de49cbd	0.11162708
20	0x3ef03364	0.46914208
21	0x3e0ff0e6	0.14056739
22	0x3a6b3d3f	0.0008973665
23	0xbea638e4	-0.3246528
24	0xbe4a2652	-0.1974118
25	0x3ea05322	0.31313425
26	0xbdb1a9af	-0.08674943
27	0x3ea9ef09	0.33190182
28	0xbe91dd5b	-0.28489193
29	0xbea27f8d	-0.3173794
30	0x3e695e2b	0.22789828
31	0xbf0103ff	-0.5039672
32	0xbef6b684	-0.48186123
33	0xbe6399f0	-0.22226691
34	0x3f003130	0.50075054
35	0xbf497dc8	-0.7870755
36	0x3ebc06a9	0.3672383
37	0xbd7ebd7d	-0.06219243
38	0x3e041c60	0.12901449
39	0x3e2b4d43	0.16728692
40	0x3e96257c	0.29325473
41	0x3e6434e5	0.22285803
42	0xbd94059e	-0.07227634
43	0x3e86d5d7	0.26335022
44	0x3df8117f	0.12112712
45	0xbdb99f07	-0.09063535
46	0xbf074c0e	-0.52850425
47	0xbd275383	-0.040851127
48	0x3e2e96cb	0.1704971
49	0x3edf0270	0.43556547
50	0xbe9be9e9	-0.30451897
51	0xbde48951	-0.111590035
52	0xbe5d9e70	-0.2164247
53	0xbeeecc38	-0.46640182
54	0x3e6d656b	0.23183219
55	0xbedc422f	-0.43019244
56	0xbd5f13a9	-0.05446211
57	0x3d7e53f1	0.06209177
58	0xbe094a76	-0.13407311
59	0xbe18e323	-0.14930396
60	0x3e234966	0.15945968
61	0x3de3a977	0.11116307
62	0xbe9d76d0	-0.3075471
63	0x3e6dbc04	0.23216254
64	0x3c10bd2d	0.0088341655
65	0xbd1092c2	-0.03529621
66	0xbe99f9d6	-0.30073422
67	0x3e1ce226	0.15320644
68	0xbe933d3c	-0.28757656
69	0x3b938da1	0.0045029675
70	0x3e17cf11	0.14825083
71	0xbe0e5649	-0.13900103
72	0xbe888403	-0.26663217
73	0x3d343e7c	0.044004902
74	0xbe56b51b	-0.20967524
75	0xbe303f30	-0.17211604
76	0x3d59b2ce	0.053149037
77	0xbedf8ba4	-0.43661225
78	0x3e894c4a	0.26816016
79	0x3ea7b7c4	0.3275739
80	0xbeca4fa3	-0.39513883
81	0xbd6fde2b	-0.058561485
82	0xbe432d89	-0.19060339
83	0xbcc6d667	-0.024272157
84	0x3d2e7c3a	0.04259894
85	0xbe9d8708	-0.30767083
86	0x3db911a1	0.090365656
87	0xbbac7051	-0.0052624126
88	0x3f0df0c6	0.55445516
89	0xbeac979f	-0.33709428
90	0xbd3f6cbe	-0.046734564
91	0xbe19e837	-0.15029989
92	0xbe25989e	-0.161715
93	0x3e1407c6	0.1445609
94	0xbdd4c7e2	-0.10389687
95	0xbe32754a	-0.17427555
96	0xbcf357f3	-0.029705023
97	0xbe559f6e	-0.20861599
98	0x3d6a51e5	0.057207007
99	0xbe7fa705	-0.24966057
100	0x3e8d0052	0.27539307
101	0x3ec2ac6c	0.38022172
102	0xbdfd0e55	-0.12356249
103	0xbe9a6c5f	-0.30160806
104	0x3e0166e0	0.126369
105	0x3e12c76f	0.1433389
106	0x3e66009e	0.22461173
107	0x3edbf6a8	0.4296162
108	0x3e992ddb	0.29917797
109	0x3e9cb6da	0.30608255
110	0xbe4c7174	-0.19965154
111	0x3d23777c	0.03990887
112	0xbeb8fcf1	-0.3613048
113	0x3f03dc73	0.51508254
114	0xbed5fce4	-0.41794503
115	0xbeb9ad3b	-0.36264977
116	0xbd85dc34	-0.06536141
117	0x3e9e74d6	0.30948514
118	0xbe85bbab	-0.26119742
119	0xbebf4f82	-0.37365347
120	0xbe90ff2f	-0.2831969
121	0x3e029021	0.12750293
122	0xbe3f3af1	-0.18674828
123	0xbdccb1e7	-0.0999487
124	0x3d44dcff	0.04806232
125	0xbe9e8bd9	-0.3096607
126	0x3af8cdfb	0.0018982285
127	0xbee754bd	-0.45181838
128	0xbe8a7968	-0.2704575
129	0x3e86b812	0.2631231
130	0xbe08baa1	-0.13352443
131	0x3eba64bf	0.36404988
132	0x3e566929	0.20938553
133	0xbeb097cc	-0.34490812
134	0xbe85e26d	-0.26149312
135	0x3e41b988	0.18918431
136	0x3e2ef1b3	0.17084388
137	0xbe9cb7d8	-0.30609012
138	0xbe428a87	-0.18998156
139	0xbebf7025	-0.37390247
140	0xbea07c42	-0.313448
141	0x3e3b71ec	0.18305176
142	0x3ebab054	0.36462653
143	0xbe7f7fc9	-0.2495109
144	0x3f25fa7c	0.64835334
145	0xbee386bf	-0.4443874
146	0xbe1c634b	-0.15272252
147	0x3d73077c	0.05933331
148	0x3eab6386	0.33474368
149	0xbe3ff924	-0.18747383
150	0x3e889f80	0.2668419
151	0xbea0b625	-0.31388965
152	0x3e2947c2	0.1653128
153	0xbb50e0ba	-0.0031872229
154	0x3e58a9be	0.21158502
155	0xbf28aa88	-0.6588521
156	0x3eb9d819	0.36297682
157	0xbeb29778	-0.34881186
158	0xbcb007cb	-0.021488091
159	0x3d01ccf5	0.031689603
160	0x3d8fb86c	0.070175976
161	0x3e84afc5	0.25915352
162	0xbd022c0f	-0.0317803
163	0x3c1a5ba8	0.009421267
164	0x3de6ee72	0.112759486
165	0xbe3f27b1	-0.18667485
166	0x3e69fcc7	0.22850333
167	0xbdf6d155	-0.12051646
168	0x3e8fa4c8	0.28055406
169	0x3eb0e8a5	0.34552494
170	0xbed538d0	-0.41644907
171	0xbde69dbc	-0.11260554
172	0x3e9bb3a4	0.30410492
173	0x3f06d5d3	0.5267002
174	0xbe335c7f	-0.17515753
175	0xbe87c657	-0.2651851
176	0x3e0badb0	0.13640475
177	0x3e51be93	0.20482855
178	0x3d9453ea	0.07242568
179	0x3e04e5e9	0.12978329
180	0xbdfe2a96	-0.124104664
181	0x3d5b2b80	0.05350828
182	0x3d5fe0a5	0.054657597
183	0x3ab7a090	0.0014009643
184	0x3e4f271f	0.20229767
185	0x3d5e8b93	0.054332327
186	0x3e0adeba	0.13561526
187	0xbddebbf0	-0.1087569
188	0x3e7bfd84	0.24608427
189	0xbe31036f	-0.17286466
190	0x3eb56c49	0.35434178
191	0x3e45ef8d	0.19329663
192	0x3d102c9a	0.035198785
193	0xbec3f8de	-0.38275808
194	0x3e977dfe	0.29588312
195	0x3d01d100	0.03169346
196	0xbefb3f7d	-0.49071875
197	0xbeebd44e	-0.46060413
198	0x3dc55d35	0.096369185
199	0x3ea97077	0.33093616
200	0x3f00257c	0.50057197
201	0xbe16bbe8	-0.14720118
202	0x3d7bdb5e	0.0614885
203	0xbd992e45	-0.07479528
204	0xbe91c7d3	-0.28472766
205	0xbe732cce	-0.2374756
206	0xbe34450a	-0.17604461
207	0xbe0481ec	-0.12940186
208	0xbe495093	-0.19659643
209	0x3ec8df0e	0.39232677
210	0x3f00e239	0.5034519
211	0x3e49c4b8	0.19703948
212	0xbe59bc1f	-0.21263169
213	0xbe3baf0b	-0.18328492
214	0xbe113dc7	-0.14183722
215	0xbe915411	-0.2838445
216	0x3e92ce81	0.28673175
217	0x3e6671dd	0.22504373
218	0x3e36392f	0.17795251
219	0x3ea0b452	0.31387573
220	0x3e01ee31	0.12688519
221	0xbf0a1dbe	-0.5395163
222	0x3e7337e9	0.23751797
223	0xbf023d89	-0.50875145
224	0x3eaca768	0.3372147
225	0xbe91d9c2	-0.2848645
226	0x3db545a8	0.088511765
227	0x3ea55fb1	0.3229957
228	0xbf14af39	-0.5807987
229	0xbe553d34	-0.20824128
230	0x3e5583a1	0.20850994
231	0x3e6f9d61	0.23399879
232	0xbe93c2c4	-0.28859532
233	0x3b30a0e6	0.0026951372
234	0x3de67812	0.1125337
235	0xbe0b0bc9	-0.13578714
236	0x3e65164c	0.22371787
237	0xbec03703	-0.3754197
238	0xbeabe9c7	-0.33576795
239	0x3e4157fb	0.18881218
240	0xbe9dbe42	-0.30809218
241	0x3e8bef44	0.27330983
242	0xbe377e0d	-0.17919178
243	0xbeaded04	-0.3396989
244	0xbf0e4580	-0.555748
245	0xbc494254	-0.01228388
246	0x3e484ac5	0.19559772
247	0x3e17eed6	0.14837202
248	0x3cfe0486	0.031008016
249	0xbefa802c	-0.48925912
250	0xbf17d98d	-0.5931633
251	0x3f031c9c	0.5121553
252	0x3e42f521	0.19038822
253	0xbf064dd4	-0.52462506
254	0xbd595bf1	-0.053066198
255	0x3ee4cda9	0.44688156

linear1.bias f4 [256]
0	0xbe1d4067	-0.15356599
1	0xbe84b81f	-0.25921723
2	0xbde9389f	-0.11387753
3	0xbe831df0	-0.25608778
4	0xbd29d620	-0.04146397
5	0x3dead7cd	0.11466942
6	0xbecc2013	-0.3986822
7	0xbebe83f4	-0.37210047
8	0x3d0e9641	0.034811262
9	0xbe331e88	-0.17492115
10	0x3dd239d5	0.10264937
11	0x3cb2d16d	0.021828378
12	0xbd0fbfac	-0.035094902
13	0xbe851faa	-0.2600072
14	0xbb557832	-0.0032572863
15	0xbe0cbb75	-0.13743384
16	0xbe8ad8dd	-0.2711858
17	0x3e521776	0.20516762
18	0xbd52b634	-0.051443294
19	0xbdcc43eb	-0.09973892
20	0xbcd00ebf	-0.025397656
21	0x3d1f408b	0.038879912
22	0x3e711a02	0.23545077
23	0x3ea61eb3	0.32445297
24	0xbe48f55e	-0.1962485
25	0xbda7ff77	-0.08203023
26	0x3eb25436	0.34829873
27	0xbd12030e	-0.035647444
28	0xbd86fe57	-0.0659148
29	0x3d1a8f85	0.037734527
30	0xbd5ac2d5	-0.053408463
31	0x3cb93fa2	0.02261335
32	0xbd4b6fe4	-0.049667254
33	0xbdb50128	-0.08838111
34	0xbe3d400b	-0.18481462
35	0xbe38a007	-0.18029796
36	0x3e92134c	0.28530347
37	0xbe810175	-0.25196424
38	0x3ca38ee3	0.019965595
39	0x3d0a8a0d	0.03382306
40	0xbcec01d9	-0.028809475
41	0xbdc96b8b	-0.09834965
42	0xbe19ff33	-0.15038757
43	0xbe4d4853	-0.20047121
44	0xbd943fa0	-0.07238698
45	0x3e2f63ba	0.17127886
46	0xbe38f7b6	-0.18063244
47	0x3d8ec152	0.06970467
48	0xbe335184	-0.17511564
49	0xbcea1bc0	-0.028577685
50	0x3b5ab69a	0.0033373
51	0x3ee9825b	0.45607266
52	0x3d896311	0.067083485
53	0xbed73403	-0.4203187
54	0x3d819afa	0.063283876
55	0xbe45be4d	-0.19310875
56	0xbe64acda	-0.22331563
57	0xbe1ab521	-0.15108158
58	0xbe56fc7e	-0.20994756
59	0x3e0ca02b	0.13732974
60	0xbe85ea3f	-0.26155278
61	0x3cedf14d	0.029045725
62	0x3edb9645	0.42888084
63	0xbe8bd5d3	-0.27311572
64	0x3b06f429	0.0020592308
65	0xbd75579c	-0.059898004
66	0x3dffd0ce	0.12490998
67	0xbda22888	-0.07917887
68	0x3edf2e87	0.43590185
69	0xbea18529	-0.31546906
70	0xbce83d87	-0.028349651
71	0xbdab1cd5	-0.08355109
72	0xbe94b130	-0.29041433
73	0xbc7ed490	-0.015553609
74	0x3e427a1c	0.18991894
75	0x3d1c16f8	0.038107842
76	0xbf15e025	-0.5854514
77	0x3e03c6b2	0.12868765
78	0x3e895a26	0.2682659
79	0x3d7e5792	0.062095232
80	0xbe34c147	-0.17651854
81	0xbe439b37	-0.19102179
82	0xbe923915	-0.28559175
83	0x3d6cd2c1	0.057818178
84	0x3cd7fe45	0.026366362
85	0x3e17a4bb	0.14808933
86	0xbe46248e	-0.19349882
87	0x3d4f8087	0.050659683
88	0xbe4a7f19	-0.19775046
89	0xbeb252d3	-0.34828815
90	0x3e2d3ca5	0.16917665
91	0xbdbd14d0	-0.09232485
92	0xbc6db189	-0.01450766
93	0x3e9f9cec	0.3117441
94	0xbe34350d	-0.17598362
95	0xbdfa73ab	-0.12229093
96	0xbe34f34e	-0.17670938
97	0xbd457680	-0.048208714
98	0xbe653853	-0.22384767
99	0x3ec94a46	0.3931448
100	0x3ee976d9	0.45598486
101	0x3e67ee52	0.22649506
102	0x3ec6b307	0.38808462
103	0x3d808b2f	0.06276547
104	0xbd977673	-0.07395639
105	0xbe862bea	-0.2620538
106	0xbd6a57d3	-0.057212662
107	0x3c0a9d4a	0.008460352
108	0xbe3263e7	-0.17420922
109	0x3e8a82a6	0.27052802
110	0xbe223f73	-0.15844516
111	0xbeb33ec2	-0.35008818
112	0x3ec5b2a8	0.38612866
113	0xbd910476	-0.07080929
114	0xbe62705a	-0.22113171
115	0xbe8552f8	-0.26039863
116	0xbd4007d1	-0.046882454
117	0xbd4eaeb3	-0.050459575
118	0xbe163070	-0.14666915
119	0x3d0971b3	0.033555698
120	0x3e060c7b	0.13090698
121	0x3f03b502	0.5144807
122	0xbe6e5a58	-0.23276651
123	0x3ef0010d	0.46875802
124	0xbe49b598	-0.19698179
125	0x3e781c4e	0.24229547
126	0xbe00faf8	-0.12595737
127	0xbd11fdfb	-0.035642605
128	0x3e3f8d05	0.18706138
129	0xbe0ae6ea	-0.13564649
130	0xbcf7e6ac	-0.03026136
131	0x3e527d34	0.20555574
132	0xbe2c8a1c	-0.1684956
133	0xbe2c2063	-0.1680923
134	0x3ed58872	0.41705662
135	0x3dd98db2	0.10622729
136	0x3deafc78	0.11473936
137	0xbdffe8e8	-0.12495595
138	0x3da8e282	0.08246328
139	0xbe115f28	-0.14196455
140	0xbe519f85	-0.20471008
141	0xbe96e33d	-0.29470244
142	0x3da54e3e	0.08071564
143	0xbd6bbd68	-0.05755368
144	0xbe66d30d	-0.22541447
145	0x3b1582ba	0.0022813515
146	0x3da348fd	0.07972906
147	0x3e55cbf5	0.20878585
148	0xbe841a82	-0.25801474
149	0xbe21419b	-0.15747683
150	0x3e539282	0.20661357
151	0xbdcbe6f2	-0.09956159
152	0x3db21614	0.08695617
153	0x3ead20a8	0.33813977
154	0xbe17c334	-0.14820558
155	0x3eb3fe73	0.35155067
156	0x3e88e59a	0.26737672
157	0xbeb6449c	-0.3559922
158	0xbe56ba2a	-0.20969453
159	0x3ce24f98	0.027625844
160	0xbe0b0820	-0.13577318
161	0xbdb03b63	-0.08605077
162	0x3f1d3e40	0.6142311
163	0xbeb01e17	-0.34397957
164	0x3d130c51	0.035900418
165	0xbeb1bace	-0.34712833
166	0x3db82754	0.08991876
167	0xbebaf23a	-0.3651293
168	0x3f16a884	0.58850884
169	0x3e7dca15	0.2478412
170	0xbdc7e483	-0.09760382
171	0xbdd00496	-0.10157125
172	0x3d10b20b	0.035326045
173	0xbe5f81a8	-0.21826804
174	0xbe3be799	-0.18350066
175	0x3e6aacf0	0.22917533
176	0xbd333893	-0.043755125
177	0xbe3995fe	-0.18123624
178	0xbe5bdf83	-0.21471982
179	0x3d6e33e2	0.058154948
180	0xbdc6b5a6	-0.097026154
181	0x3e26c899	0.1628746
182	0xbe1d892c	-0.15384358
183	0xbe1b5e6d	-0.1517274
184	0xbe085a74	-0.13315755
185	0xbe3b77f5	-0.18307479
186	0xbe495215	-0.19660218
187	0xbe22cd79	-0.15898694
188	0xbd9b53d6	-0.0758435
189	0x3e1cfec5	0.15331562
190	0xbe5a38f7	-0.21310793
191	0xbd8b7f70	-0.06811416
192	0x3e635944	0.22202021
193	0xbe851461	-0.2599211
194	0x3ec6b44e	0.38809437
195	0xbecd806f	-0.4013705
196	0x3e87ed94	0.26548445
197	0xbe0a779b	-0.13522188
198	0xbe447cf6	-0.19188294
199	0x3db03b41	0.08605052
200	0xbe93ce81	-0.28868487
201	0xbe8fbf0e	-0.2807545
202	0x3e47b8eb	0.19504134
203	0x3e5db050	0.21649289
204	0x3d944f64	0.07241705
205	0x3e8324b8	0.25613952
206	0xbe3ac923	-0.1824079
207	0x3dcf0eb5	0.10110227
208	0xbe4741c8	-0.19458687
209	0xbcaba7b5	-0.020953992
210	0xbe630ace	-0.2217209
211	0x3dd5b04c	0.104340166
212	0xbe2a8abd	-0.16654487
213	0xbd2375bb	-0.0399072
214	0x3eafcc8b	0.3433574
215	0xbdf675ea	-0.12034209
216	0xbdc3d1cc	-0.095615
217	0xbe1dfa9a	-0.15427628
218	0x3e8c1d0e	0.27365917
219	0xbdaf6d71	-0.08565796
220	0x3d5ec3b0	0.05438584
221	0xbda5561a	-0.08073063
222	0x3dbcf252	0.092259064
223	0xbd62c940	-0.05536771
224	0xbe4f590c	-0.20248812
225	0xbe9b9806	-0.30389422
226	0x3c2ef3fd	0.0106782885
227	0x3dc8be93	0.09801974
228	0xbeaa8fa0	-0.33312702
229	0xbdf7445c	-0.120735854
230	0x3e09a122	0.13440374
231	0xbe8941f7	-0.2680814
232	0x3c20e3a9	0.009819903
233	0xbe7125a9	-0.23549522
234	0xbcfdf0f4	-0.030998684
235	0xbd940e4b	-0.07229289
236	0xbe190cbe	-0.14946267
237	0x3e659acd	0.22422333
238	0xbd0ccd46	-0.03437545
239	0x3d34d4a2	0.044148095
240	0xbeaa4a31	-0.3325973
241	0xbe0609a9	-0.13089623
242	0xbe2f3b7b	-0.17112534
243	0xbda44b6f	-0.080222
244	0xbd5d6632	-0.05405254
245	0x3dad625c	0.08466026
246	0xbc8a7423	-0.016901081
247	0xbe3a6ae2	-0.18204835
248	0x3e63c6cd	0.22243805
249	0xbe0b2e6e	-0.1359193
250	0x3dea2986	0.11433701
251	0xbe8b3fcf	-0.2719712
252	0x3dc99579	0.09842963
253	0xbd897a69	-0.06712801
254	0xbe5fadf3	-0.218437
255	0xbd2553d2	-0.04036314

linear2.weight f4 [3, 256]
0	0xbd044ba0	-0.032298684
1	0xbeb8abe1	-0.36068633
2	0xbd84c8a0	-0.06483579
3	0x3d2338ec	0.039849207
4	0xbe99e70c	-0.30059087
5	0x3d38bc70	0.045101583
6	0x3d08aa65	0.033365626
7	0x3e307780	0.17233086
8	0xbe896868	-0.26837468
9	0xbd9fad06	-0.077966735
10	0x3edea809	0.43487576
11	0xbe4a25d6	-0.19740996
12	0x3d75e78f	0.060035285
13	0xbd829553	-0.063761376
14	0xbd786253	-0.060640644
15	0x3e9a4e18	0.30137706
16	0xbd3ebeb7	-0.0465686
17	0x3ebdade0	0.3704672
18	0x3a72cee5	0.0009262397
19	0xbdf5d1ad	-0.12002883
20	0xbdfb8d9c	-0.12282869
21	0xbe173836	-0.14767537
22	0x3e9f84a7	0.31155893
23	0x3e89d9f4	0.26924098
24	0xbd959707	-0.07304197
25	0x3e1333aa	0.14375177
26	0x3e4289e8	0.1899792
27	0xbe8e5c60	-0.27804852
28	0xbf0970db	-0.5368783
29	0xbb4a154d	-0.003083545
30	0x3e31c987	0.17362033
31	0x3e936fd4	0.28796256
32	0xbe18f225	-0.14936121
33	0xbd4245b5	-0.04742976
34	0x3eb35e4e	0.35032886
35	0xbef3afa4	-0.4759494
36	0x3dc3c01d	0.09558127
37	0xbe514300	-0.20435715
38	0xbe6a75c4	-0.22896487
39	0xbd803c93	-0.062615536
40	0x3ef7f1dc	0.48426712
41	0x3e9aa730	0.3020568
42	0xbbd2bcf3	-0.006431216
43	0x3d7370cd	0.059433747
44	0x3e6f22b3	0.2335308
45	0x3ed8ab31	0.4231811
46	0x3d51967d	0.051168907
47	0xbe8739d7	-0.26411316
48	0xbd8a023a	-0.06738706
49	0x3e0e3303	0.13886647
50	0xbeabafb3	-0.33532485
51	0x3ef6ef55	0.4822947
52	0x3ec729be	0.38899034
53	0xbe5bc8bc	-0.21463293
54	0xbee5b960	-0.44867992
55	0xbe61a252	-0.22034577
56	0xbec4b7b0	-0.38421392
57	0x3e621c19	0.22081031
58	0xbe174d2c	-0.14775532
59	0x3cad7255	0.021172682
60	0xbadba40d	-0.0016757265
61	0xbd9d24b2	-0.07673015
62	0x3e9543cb	0.29153284
63	0xbe4b7aac	-0.19871014
64	0xbcefc530	-0.029268831
65	0xbf51f53a	-0.8201481
66	0xbe062381	-0.13099481
67	0x3e4a8847	0.19778548
68	0x3ecb5ac7	0.39717695
69	0xbed7c687	-0.42143652
70	0x3e992589	0.2991145
71	0xbb95c8fb	-0.004571078
72	0xbe2fc838	-0.17166221
73	0xbf150769	-0.5821443
74	0x3d23efd9	0.04002366
75	0x3e893b07	0.26802847
76	0x3dc0e05c	0.09417793
77	0x3bc18842	0.005906136
78	0x3ea31300	0.31850433
79	0x3e6460cd	0.22302552
80	0xbdc969a3	-0.09834602
81	0xbc90367e	-0.017604109
82	0xbe239aeb	-0.15977065
83	0xbe140434	-0.14454728
84	0x3ccc126f	0.024911134
85	0x3e94084d	0.28912583
86	0x3cc903e4	0.024537988
87	0x3de90b6a	0.1137913
88	0xbeba13f1	-0.3634334
89	0x3b5b0dba	0.003342493
90	0x3db641d0	0.088992715
91	0xbe379781	-0.17928888
92	0x3ea51bda	0.32247812
93	0x3ec343bd	0.38137618
94	0xbe1f348b	-0.15547387
95	0xbf208638	-0.627048
96	0x3d465734	0.048423007
97	0xbd087aaa	-0.033320107
98	0xbe002eac	-0.12517804
99	0x3ea6979f	0.32537553
100	0x3ed114b6	0.40836114
101	0x3eb9f8d9	0.36322668
102	0x3e64e7df	0.22354077
103	0x3cefdd8e	0.02928045
104	0xbe50edfc	-0.20403284
105	0xbde59952	-0.11210884
106	0xbebeb618	-0.37248302
107	0x3ec3369f	0.3812761
108	0xbe810234	-0.25196993
109	0x3dfec343	0.12439587
110	0x3d8f3e4b	0.06994303
111	0xbdfaf492	-0.12253679
112	0x3e411437	0.18855368
113	0xbe9dc540	-0.30814552
114	0xbdda8710	-0.106702924
115	0xbd5534fc	-0.052052483
116	0xbd056e6c	-0.03257601
117	0xbf613f3f	-0.8798713
118	0xbdfd951f	-0.12381958
119	0x3eb2b98b	0.34907183
120	0xbdd4fbdd	-0.103996016
121	0x3eaf25ad	0.34208432
122	0xbe0c63e4	-0.1370998
123	0x3e27ff71	0.16406037
124	0xbf011597	-0.5042357
125	0x3e154b6c	0.14579552
126	0xbd9f61d9	-0.07782335
127	0xbe05aa05	-0.13053139
128	0x3ea0b32f	0.31386706
129	0xbc2a8993	-0.010408777
130	0xbf304b16	-0.6886457
131	0x3e2f4861	0.17117454
132	0xbdc08ad8	-0.09401482
133	0xbe8c0ba8	-0.27352643
134	0x3ea50e80	0.32237625
135	0x3c33c75d	0.010972825
136	0x3cf2da03	0.029644972
137	0xbe757e59	-0.23973979
138	0x3ea9adad	0.33140317
139	0xbdfbd951	-0.12297309
140	0xbe9b7d9a	-0.30369264
141	0x3d41497c	0.04718922
142	0x3ed5c49b	0.4175156
143	0xbe78cb77	-0.24296366
144	0xbe0a12aa	-0.13483682
145	0xbea89220	-0.32923985
146	0xbd1b5310	-0.03792101
147	0x3dc36dba	0.09542413
148	0x3cbae8ad	0.022816027
149	0x3d8b267d	0.067944504
150	0x3e9fd217	0.31214973
151	0xbe3b0e52	-0.18267182
152	0x3eee1763	0.46502218
153	0x3ef3b888	0.47601724
154	0xbe805bf5	-0.25070158
155	0x3e9202a4	0.2851764
156	0x3e7b15ec	0.24520081
157	0xbcc2c73b	-0.023776641
158	0xbde29be6	-0.110648915
159	0xbf28e775	-0.65978175
160	0xbd87b3a0	-0.066260576
161	0xbd881eab	-0.066464745
162	0x3eb94ad2	0.36189896
163	0x3c87733a	0.016534436
164	0xbe2c6e4c	-0.1683895
165	0x3aea7e53	0.0017890431
166	0xbe820b4a	-0.25399238
167	0xbe4c940e	-0.19978353
168	0x3e79f030	0.2440803
169	0x3e9cf8b5	0.30658498
170	0x3dee2cd2	0.116296425
171	0xbe0eca56	-0.13944373
172	0xbd71b6bb	-0.059012156
173	0xbc8f0b94	-0.017461576
174	0xbc8b04af	-0.016970007
175	0x3eac503b	0.3365496
176	0xbc9ca978	-0.019123778
177	0xbefa701f	-0.48913667
178	0x3e58d39b	0.21174471
179	0x3e1c716b	0.1527764
180	0xbdf8e404	-0.121528655
181	0x3c9bd7cf	0.019023804
182	0x3d550841	0.052009825
183	0xbea2fee1	-0.31835082
184	0xbeeaba08	-0.45845056
185	0xbe27730d	-0.16352482
186	0xbdc731e9	-0.097263165
187	0x3b58a063	0.0033054582
188	0xbe69e1c2	-0.22840026
189	0x3db57938	0.08861011
190	0xbed0df5f	-0.4079542
191	0xbe3c007d	-0.18359561
192	0x3e78a96c	0.2428338
193	0xbf04d124	-0.51881623
194	0x3eb8f4db	0.3612431
195	0x3c106cbf	0.00881499
196	0x3eb5762c	0.3544172
197	0xbe070fe9	-0.13189663
198	0xbd9acdd5	-0.075587906
199	0xbc89fe88	-0.016845003
200	0xbe514f0b	-0.20440309
201	0xbec74d33	-0.38926086
202	0x3e66174d	0.22469826
203	0x3ed81639	0.42204455
204	0xbf2702d1	-0.6523867
205	0x3ee37acc	0.44429624
206	0x3de0ae44	0.109707385
207	0x3ec38359	0.38186148
208	0xbebb6b21	-0.3660517
209	0xbe8c94d8	-0.2745731
210	0x3b27f1e0	0.0025626346
211	0xbe8ea39d	-0.27859202
212	0xbd8c791f	-0.068590395
213	0x3e4c966b	0.19979255
214	0x3e61ca17	0.22049747
215	0x3eab766f	0.33488795
216	0xbdfd121a	-0.12356968
217	0xbdaa6abf	-0.083211415
218	0x3e6c623b	0.23084347
219	0xbda4a303	-0.080389045
220	0x3d2d5a09	0.042322192
221	0xbc8e6759	-0.017383264
222	0xbe57dc33	-0.21080093
223	0xbd4e08d7	-0.0503014
224	0xbc6f114a	-0.014591524
225	0xbe14899e	-0.14505622
226	0x3c2cc706	0.010545498
227	0x3edf63aa	0.43630725
228	0x3c2695e5	0.010167574
229	0xbe0c699c	-0.13712162
230	0x3edfa576	0.43680924
231	0xbe22fe4f	-0.15917324
232	0x3ef1da24	0.4723674
233	0x3dff9c5b	0.12480994
234	0xbee2ddc9	-0.44309834
235	0xbe5c2f88	-0.21502507
236	0xbeea3212	-0.45741326
237	0x3ed5ee5e	0.41783422
238	0x3e2ffc84	0.17186171
239	0x3ce68081	0.028137447
240	0xbe0227cf	-0.12710498
241	0x3e38bfc7	0.18041907
242	0xbf02bbe7	-0.51067966
243	0xbe7e4d04	-0.24834067
244	0xbc817ae8	-0.015805677
245	0x3eae898e	0.3408932
246	0xbea883de	-0.32913107
247	0xbe68025e	-0.22657153
248	0x3ee53540	0.4476719
249	0x3d68cb81	0.0568347
250	0xbf4c3b75	-0.79778224
251	0xbe5aa148	-0.21350586
252	0x3d25ccc9	0.0404785
253	0xbd442f56	-0.047896706
254	0xbe3a9ed1	-0.18224646
255	0xbd2b696d	-0.04184859

linear2.bias f4 [3]
0	0x3e6abd51	0.22923781
1	0xbbf5e6d9	-0.007504326
2	0xbd2506ce	-0.040289693
